CondenseresNetTrans(
  (features): Sequential(
    (init_conv): Conv2d (3, 16, kernel_size=(3, 3), stride=(1, 1), padding=(1, 1), bias=False)
    (denseblock_1): _DenseBlock(
      (denselayer_1): _DenseLayer(
        (conv_1): LearnedGroupConv(
          (norm): BatchNorm2d(16, eps=1e-05, momentum=0.1, affine=True)
          (relu): ReLU(inplace)
          (conv): Conv2d (16, 32, kernel_size=(1, 1), stride=(1, 1), bias=False)
        )
        (conv_2): Conv(
          (norm): BatchNorm2d(32, eps=1e-05, momentum=0.1, affine=True)
          (relu): ReLU(inplace)
          (conv): Conv2d (32, 8, kernel_size=(3, 3), stride=(1, 1), padding=(1, 1), groups=4, bias=False)
        )
        (res): LearnedGroupConvTrans(
          (norm): BatchNorm2d(8, eps=1e-05, momentum=0.1, affine=True)
          (relu): ReLU(inplace)
          (conv): Conv2d (8, 16, kernel_size=(1, 1), stride=(1, 1), bias=False)
        )
      )
      (denselayer_2): _DenseLayer(
        (conv_1): LearnedGroupConv(
          (norm): BatchNorm2d(24, eps=1e-05, momentum=0.1, affine=True)
          (relu): ReLU(inplace)
          (conv): Conv2d (24, 32, kernel_size=(1, 1), stride=(1, 1), bias=False)
        )
        (conv_2): Conv(
          (norm): BatchNorm2d(32, eps=1e-05, momentum=0.1, affine=True)
          (relu): ReLU(inplace)
          (conv): Conv2d (32, 8, kernel_size=(3, 3), stride=(1, 1), padding=(1, 1), groups=4, bias=False)
        )
        (res): LearnedGroupConvTrans(
          (norm): BatchNorm2d(8, eps=1e-05, momentum=0.1, affine=True)
          (relu): ReLU(inplace)
          (conv): Conv2d (8, 24, kernel_size=(1, 1), stride=(1, 1), bias=False)
        )
      )
      (denselayer_3): _DenseLayer(
        (conv_1): LearnedGroupConv(
          (norm): BatchNorm2d(32, eps=1e-05, momentum=0.1, affine=True)
          (relu): ReLU(inplace)
          (conv): Conv2d (32, 32, kernel_size=(1, 1), stride=(1, 1), bias=False)
        )
        (conv_2): Conv(
          (norm): BatchNorm2d(32, eps=1e-05, momentum=0.1, affine=True)
          (relu): ReLU(inplace)
          (conv): Conv2d (32, 8, kernel_size=(3, 3), stride=(1, 1), padding=(1, 1), groups=4, bias=False)
        )
        (res): LearnedGroupConvTrans(
          (norm): BatchNorm2d(8, eps=1e-05, momentum=0.1, affine=True)
          (relu): ReLU(inplace)
          (conv): Conv2d (8, 32, kernel_size=(1, 1), stride=(1, 1), bias=False)
        )
      )
      (denselayer_4): _DenseLayer(
        (conv_1): LearnedGroupConv(
          (norm): BatchNorm2d(40, eps=1e-05, momentum=0.1, affine=True)
          (relu): ReLU(inplace)
          (conv): Conv2d (40, 32, kernel_size=(1, 1), stride=(1, 1), bias=False)
        )
        (conv_2): Conv(
          (norm): BatchNorm2d(32, eps=1e-05, momentum=0.1, affine=True)
          (relu): ReLU(inplace)
          (conv): Conv2d (32, 8, kernel_size=(3, 3), stride=(1, 1), padding=(1, 1), groups=4, bias=False)
        )
        (res): LearnedGroupConvTrans(
          (norm): BatchNorm2d(8, eps=1e-05, momentum=0.1, affine=True)
          (relu): ReLU(inplace)
          (conv): Conv2d (8, 40, kernel_size=(1, 1), stride=(1, 1), bias=False)
        )
      )
      (denselayer_5): _DenseLayer(
        (conv_1): LearnedGroupConv(
          (norm): BatchNorm2d(48, eps=1e-05, momentum=0.1, affine=True)
          (relu): ReLU(inplace)
          (conv): Conv2d (48, 32, kernel_size=(1, 1), stride=(1, 1), bias=False)
        )
        (conv_2): Conv(
          (norm): BatchNorm2d(32, eps=1e-05, momentum=0.1, affine=True)
          (relu): ReLU(inplace)
          (conv): Conv2d (32, 8, kernel_size=(3, 3), stride=(1, 1), padding=(1, 1), groups=4, bias=False)
        )
        (res): LearnedGroupConvTrans(
          (norm): BatchNorm2d(8, eps=1e-05, momentum=0.1, affine=True)
          (relu): ReLU(inplace)
          (conv): Conv2d (8, 48, kernel_size=(1, 1), stride=(1, 1), bias=False)
        )
      )
      (denselayer_6): _DenseLayer(
        (conv_1): LearnedGroupConv(
          (norm): BatchNorm2d(56, eps=1e-05, momentum=0.1, affine=True)
          (relu): ReLU(inplace)
          (conv): Conv2d (56, 32, kernel_size=(1, 1), stride=(1, 1), bias=False)
        )
        (conv_2): Conv(
          (norm): BatchNorm2d(32, eps=1e-05, momentum=0.1, affine=True)
          (relu): ReLU(inplace)
          (conv): Conv2d (32, 8, kernel_size=(3, 3), stride=(1, 1), padding=(1, 1), groups=4, bias=False)
        )
        (res): LearnedGroupConvTrans(
          (norm): BatchNorm2d(8, eps=1e-05, momentum=0.1, affine=True)
          (relu): ReLU(inplace)
          (conv): Conv2d (8, 56, kernel_size=(1, 1), stride=(1, 1), bias=False)
        )
      )
      (denselayer_7): _DenseLayer(
        (conv_1): LearnedGroupConv(
          (norm): BatchNorm2d(64, eps=1e-05, momentum=0.1, affine=True)
          (relu): ReLU(inplace)
          (conv): Conv2d (64, 32, kernel_size=(1, 1), stride=(1, 1), bias=False)
        )
        (conv_2): Conv(
          (norm): BatchNorm2d(32, eps=1e-05, momentum=0.1, affine=True)
          (relu): ReLU(inplace)
          (conv): Conv2d (32, 8, kernel_size=(3, 3), stride=(1, 1), padding=(1, 1), groups=4, bias=False)
        )
        (res): LearnedGroupConvTrans(
          (norm): BatchNorm2d(8, eps=1e-05, momentum=0.1, affine=True)
          (relu): ReLU(inplace)
          (conv): Conv2d (8, 64, kernel_size=(1, 1), stride=(1, 1), bias=False)
        )
      )
      (denselayer_8): _DenseLayer(
        (conv_1): LearnedGroupConv(
          (norm): BatchNorm2d(72, eps=1e-05, momentum=0.1, affine=True)
          (relu): ReLU(inplace)
          (conv): Conv2d (72, 32, kernel_size=(1, 1), stride=(1, 1), bias=False)
        )
        (conv_2): Conv(
          (norm): BatchNorm2d(32, eps=1e-05, momentum=0.1, affine=True)
          (relu): ReLU(inplace)
          (conv): Conv2d (32, 8, kernel_size=(3, 3), stride=(1, 1), padding=(1, 1), groups=4, bias=False)
        )
        (res): LearnedGroupConvTrans(
          (norm): BatchNorm2d(8, eps=1e-05, momentum=0.1, affine=True)
          (relu): ReLU(inplace)
          (conv): Conv2d (8, 72, kernel_size=(1, 1), stride=(1, 1), bias=False)
        )
      )
    )
    (transition_1): _Transition(
      (pool): AvgPool2d(kernel_size=2, stride=2, padding=0, ceil_mode=False, count_include_pad=True)
    )
    (denseblock_2): _DenseBlock(
      (denselayer_1): _DenseLayer(
        (conv_1): LearnedGroupConv(
          (norm): BatchNorm2d(80, eps=1e-05, momentum=0.1, affine=True)
          (relu): ReLU(inplace)
          (conv): Conv2d (80, 64, kernel_size=(1, 1), stride=(1, 1), bias=False)
        )
        (conv_2): Conv(
          (norm): BatchNorm2d(64, eps=1e-05, momentum=0.1, affine=True)
          (relu): ReLU(inplace)
          (conv): Conv2d (64, 16, kernel_size=(3, 3), stride=(1, 1), padding=(1, 1), groups=4, bias=False)
        )
        (res): LearnedGroupConvTrans(
          (norm): BatchNorm2d(16, eps=1e-05, momentum=0.1, affine=True)
          (relu): ReLU(inplace)
          (conv): Conv2d (16, 80, kernel_size=(1, 1), stride=(1, 1), bias=False)
        )
      )
      (denselayer_2): _DenseLayer(
        (conv_1): LearnedGroupConv(
          (norm): BatchNorm2d(96, eps=1e-05, momentum=0.1, affine=True)
          (relu): ReLU(inplace)
          (conv): Conv2d (96, 64, kernel_size=(1, 1), stride=(1, 1), bias=False)
        )
        (conv_2): Conv(
          (norm): BatchNorm2d(64, eps=1e-05, momentum=0.1, affine=True)
          (relu): ReLU(inplace)
          (conv): Conv2d (64, 16, kernel_size=(3, 3), stride=(1, 1), padding=(1, 1), groups=4, bias=False)
        )
        (res): LearnedGroupConvTrans(
          (norm): BatchNorm2d(16, eps=1e-05, momentum=0.1, affine=True)
          (relu): ReLU(inplace)
          (conv): Conv2d (16, 96, kernel_size=(1, 1), stride=(1, 1), bias=False)
        )
      )
      (denselayer_3): _DenseLayer(
        (conv_1): LearnedGroupConv(
          (norm): BatchNorm2d(112, eps=1e-05, momentum=0.1, affine=True)
          (relu): ReLU(inplace)
          (conv): Conv2d (112, 64, kernel_size=(1, 1), stride=(1, 1), bias=False)
        )
        (conv_2): Conv(
          (norm): BatchNorm2d(64, eps=1e-05, momentum=0.1, affine=True)
          (relu): ReLU(inplace)
          (conv): Conv2d (64, 16, kernel_size=(3, 3), stride=(1, 1), padding=(1, 1), groups=4, bias=False)
        )
        (res): LearnedGroupConvTrans(
          (norm): BatchNorm2d(16, eps=1e-05, momentum=0.1, affine=True)
          (relu): ReLU(inplace)
          (conv): Conv2d (16, 112, kernel_size=(1, 1), stride=(1, 1), bias=False)
        )
      )
      (denselayer_4): _DenseLayer(
        (conv_1): LearnedGroupConv(
          (norm): BatchNorm2d(128, eps=1e-05, momentum=0.1, affine=True)
          (relu): ReLU(inplace)
          (conv): Conv2d (128, 64, kernel_size=(1, 1), stride=(1, 1), bias=False)
        )
        (conv_2): Conv(
          (norm): BatchNorm2d(64, eps=1e-05, momentum=0.1, affine=True)
          (relu): ReLU(inplace)
          (conv): Conv2d (64, 16, kernel_size=(3, 3), stride=(1, 1), padding=(1, 1), groups=4, bias=False)
        )
        (res): LearnedGroupConvTrans(
          (norm): BatchNorm2d(16, eps=1e-05, momentum=0.1, affine=True)
          (relu): ReLU(inplace)
          (conv): Conv2d (16, 128, kernel_size=(1, 1), stride=(1, 1), bias=False)
        )
      )
      (denselayer_5): _DenseLayer(
        (conv_1): LearnedGroupConv(
          (norm): BatchNorm2d(144, eps=1e-05, momentum=0.1, affine=True)
          (relu): ReLU(inplace)
          (conv): Conv2d (144, 64, kernel_size=(1, 1), stride=(1, 1), bias=False)
        )
        (conv_2): Conv(
          (norm): BatchNorm2d(64, eps=1e-05, momentum=0.1, affine=True)
          (relu): ReLU(inplace)
          (conv): Conv2d (64, 16, kernel_size=(3, 3), stride=(1, 1), padding=(1, 1), groups=4, bias=False)
        )
        (res): LearnedGroupConvTrans(
          (norm): BatchNorm2d(16, eps=1e-05, momentum=0.1, affine=True)
          (relu): ReLU(inplace)
          (conv): Conv2d (16, 144, kernel_size=(1, 1), stride=(1, 1), bias=False)
        )
      )
      (denselayer_6): _DenseLayer(
        (conv_1): LearnedGroupConv(
          (norm): BatchNorm2d(160, eps=1e-05, momentum=0.1, affine=True)
          (relu): ReLU(inplace)
          (conv): Conv2d (160, 64, kernel_size=(1, 1), stride=(1, 1), bias=False)
        )
        (conv_2): Conv(
          (norm): BatchNorm2d(64, eps=1e-05, momentum=0.1, affine=True)
          (relu): ReLU(inplace)
          (conv): Conv2d (64, 16, kernel_size=(3, 3), stride=(1, 1), padding=(1, 1), groups=4, bias=False)
        )
        (res): LearnedGroupConvTrans(
          (norm): BatchNorm2d(16, eps=1e-05, momentum=0.1, affine=True)
          (relu): ReLU(inplace)
          (conv): Conv2d (16, 160, kernel_size=(1, 1), stride=(1, 1), bias=False)
        )
      )
      (denselayer_7): _DenseLayer(
        (conv_1): LearnedGroupConv(
          (norm): BatchNorm2d(176, eps=1e-05, momentum=0.1, affine=True)
          (relu): ReLU(inplace)
          (conv): Conv2d (176, 64, kernel_size=(1, 1), stride=(1, 1), bias=False)
        )
        (conv_2): Conv(
          (norm): BatchNorm2d(64, eps=1e-05, momentum=0.1, affine=True)
          (relu): ReLU(inplace)
          (conv): Conv2d (64, 16, kernel_size=(3, 3), stride=(1, 1), padding=(1, 1), groups=4, bias=False)
        )
        (res): LearnedGroupConvTrans(
          (norm): BatchNorm2d(16, eps=1e-05, momentum=0.1, affine=True)
          (relu): ReLU(inplace)
          (conv): Conv2d (16, 176, kernel_size=(1, 1), stride=(1, 1), bias=False)
        )
      )
      (denselayer_8): _DenseLayer(
        (conv_1): LearnedGroupConv(
          (norm): BatchNorm2d(192, eps=1e-05, momentum=0.1, affine=True)
          (relu): ReLU(inplace)
          (conv): Conv2d (192, 64, kernel_size=(1, 1), stride=(1, 1), bias=False)
        )
        (conv_2): Conv(
          (norm): BatchNorm2d(64, eps=1e-05, momentum=0.1, affine=True)
          (relu): ReLU(inplace)
          (conv): Conv2d (64, 16, kernel_size=(3, 3), stride=(1, 1), padding=(1, 1), groups=4, bias=False)
        )
        (res): LearnedGroupConvTrans(
          (norm): BatchNorm2d(16, eps=1e-05, momentum=0.1, affine=True)
          (relu): ReLU(inplace)
          (conv): Conv2d (16, 192, kernel_size=(1, 1), stride=(1, 1), bias=False)
        )
      )
    )
    (transition_2): _Transition(
      (pool): AvgPool2d(kernel_size=2, stride=2, padding=0, ceil_mode=False, count_include_pad=True)
    )
    (denseblock_3): _DenseBlock(
      (denselayer_1): _DenseLayer(
        (conv_1): LearnedGroupConv(
          (norm): BatchNorm2d(208, eps=1e-05, momentum=0.1, affine=True)
          (relu): ReLU(inplace)
          (conv): Conv2d (208, 128, kernel_size=(1, 1), stride=(1, 1), bias=False)
        )
        (conv_2): Conv(
          (norm): BatchNorm2d(128, eps=1e-05, momentum=0.1, affine=True)
          (relu): ReLU(inplace)
          (conv): Conv2d (128, 32, kernel_size=(3, 3), stride=(1, 1), padding=(1, 1), groups=4, bias=False)
        )
        (res): LearnedGroupConvTrans(
          (norm): BatchNorm2d(32, eps=1e-05, momentum=0.1, affine=True)
          (relu): ReLU(inplace)
          (conv): Conv2d (32, 208, kernel_size=(1, 1), stride=(1, 1), bias=False)
        )
      )
      (denselayer_2): _DenseLayer(
        (conv_1): LearnedGroupConv(
          (norm): BatchNorm2d(240, eps=1e-05, momentum=0.1, affine=True)
          (relu): ReLU(inplace)
          (conv): Conv2d (240, 128, kernel_size=(1, 1), stride=(1, 1), bias=False)
        )
        (conv_2): Conv(
          (norm): BatchNorm2d(128, eps=1e-05, momentum=0.1, affine=True)
          (relu): ReLU(inplace)
          (conv): Conv2d (128, 32, kernel_size=(3, 3), stride=(1, 1), padding=(1, 1), groups=4, bias=False)
        )
        (res): LearnedGroupConvTrans(
          (norm): BatchNorm2d(32, eps=1e-05, momentum=0.1, affine=True)
          (relu): ReLU(inplace)
          (conv): Conv2d (32, 240, kernel_size=(1, 1), stride=(1, 1), bias=False)
        )
      )
      (denselayer_3): _DenseLayer(
        (conv_1): LearnedGroupConv(
          (norm): BatchNorm2d(272, eps=1e-05, momentum=0.1, affine=True)
          (relu): ReLU(inplace)
          (conv): Conv2d (272, 128, kernel_size=(1, 1), stride=(1, 1), bias=False)
        )
        (conv_2): Conv(
          (norm): BatchNorm2d(128, eps=1e-05, momentum=0.1, affine=True)
          (relu): ReLU(inplace)
          (conv): Conv2d (128, 32, kernel_size=(3, 3), stride=(1, 1), padding=(1, 1), groups=4, bias=False)
        )
        (res): LearnedGroupConvTrans(
          (norm): BatchNorm2d(32, eps=1e-05, momentum=0.1, affine=True)
          (relu): ReLU(inplace)
          (conv): Conv2d (32, 272, kernel_size=(1, 1), stride=(1, 1), bias=False)
        )
      )
      (denselayer_4): _DenseLayer(
        (conv_1): LearnedGroupConv(
          (norm): BatchNorm2d(304, eps=1e-05, momentum=0.1, affine=True)
          (relu): ReLU(inplace)
          (conv): Conv2d (304, 128, kernel_size=(1, 1), stride=(1, 1), bias=False)
        )
        (conv_2): Conv(
          (norm): BatchNorm2d(128, eps=1e-05, momentum=0.1, affine=True)
          (relu): ReLU(inplace)
          (conv): Conv2d (128, 32, kernel_size=(3, 3), stride=(1, 1), padding=(1, 1), groups=4, bias=False)
        )
        (res): LearnedGroupConvTrans(
          (norm): BatchNorm2d(32, eps=1e-05, momentum=0.1, affine=True)
          (relu): ReLU(inplace)
          (conv): Conv2d (32, 304, kernel_size=(1, 1), stride=(1, 1), bias=False)
        )
      )
      (denselayer_5): _DenseLayer(
        (conv_1): LearnedGroupConv(
          (norm): BatchNorm2d(336, eps=1e-05, momentum=0.1, affine=True)
          (relu): ReLU(inplace)
          (conv): Conv2d (336, 128, kernel_size=(1, 1), stride=(1, 1), bias=False)
        )
        (conv_2): Conv(
          (norm): BatchNorm2d(128, eps=1e-05, momentum=0.1, affine=True)
          (relu): ReLU(inplace)
          (conv): Conv2d (128, 32, kernel_size=(3, 3), stride=(1, 1), padding=(1, 1), groups=4, bias=False)
        )
        (res): LearnedGroupConvTrans(
          (norm): BatchNorm2d(32, eps=1e-05, momentum=0.1, affine=True)
          (relu): ReLU(inplace)
          (conv): Conv2d (32, 336, kernel_size=(1, 1), stride=(1, 1), bias=False)
        )
      )
      (denselayer_6): _DenseLayer(
        (conv_1): LearnedGroupConv(
          (norm): BatchNorm2d(368, eps=1e-05, momentum=0.1, affine=True)
          (relu): ReLU(inplace)
          (conv): Conv2d (368, 128, kernel_size=(1, 1), stride=(1, 1), bias=False)
        )
        (conv_2): Conv(
          (norm): BatchNorm2d(128, eps=1e-05, momentum=0.1, affine=True)
          (relu): ReLU(inplace)
          (conv): Conv2d (128, 32, kernel_size=(3, 3), stride=(1, 1), padding=(1, 1), groups=4, bias=False)
        )
        (res): LearnedGroupConvTrans(
          (norm): BatchNorm2d(32, eps=1e-05, momentum=0.1, affine=True)
          (relu): ReLU(inplace)
          (conv): Conv2d (32, 368, kernel_size=(1, 1), stride=(1, 1), bias=False)
        )
      )
      (denselayer_7): _DenseLayer(
        (conv_1): LearnedGroupConv(
          (norm): BatchNorm2d(400, eps=1e-05, momentum=0.1, affine=True)
          (relu): ReLU(inplace)
          (conv): Conv2d (400, 128, kernel_size=(1, 1), stride=(1, 1), bias=False)
        )
        (conv_2): Conv(
          (norm): BatchNorm2d(128, eps=1e-05, momentum=0.1, affine=True)
          (relu): ReLU(inplace)
          (conv): Conv2d (128, 32, kernel_size=(3, 3), stride=(1, 1), padding=(1, 1), groups=4, bias=False)
        )
        (res): LearnedGroupConvTrans(
          (norm): BatchNorm2d(32, eps=1e-05, momentum=0.1, affine=True)
          (relu): ReLU(inplace)
          (conv): Conv2d (32, 400, kernel_size=(1, 1), stride=(1, 1), bias=False)
        )
      )
      (denselayer_8): _DenseLayer(
        (conv_1): LearnedGroupConv(
          (norm): BatchNorm2d(432, eps=1e-05, momentum=0.1, affine=True)
          (relu): ReLU(inplace)
          (conv): Conv2d (432, 128, kernel_size=(1, 1), stride=(1, 1), bias=False)
        )
        (conv_2): Conv(
          (norm): BatchNorm2d(128, eps=1e-05, momentum=0.1, affine=True)
          (relu): ReLU(inplace)
          (conv): Conv2d (128, 32, kernel_size=(3, 3), stride=(1, 1), padding=(1, 1), groups=4, bias=False)
        )
        (res): LearnedGroupConvTrans(
          (norm): BatchNorm2d(32, eps=1e-05, momentum=0.1, affine=True)
          (relu): ReLU(inplace)
          (conv): Conv2d (32, 432, kernel_size=(1, 1), stride=(1, 1), bias=False)
        )
      )
    )
    (norm_last): BatchNorm2d(464, eps=1e-05, momentum=0.1, affine=True)
    (relu_last): ReLU(inplace)
    (pool_last): AvgPool2d(kernel_size=8, stride=8, padding=0, ceil_mode=False, count_include_pad=True)
  )
  (classifier): Linear(in_features=464, out_features=10)
)
FLOPs: 31902250, Params: 242938
Namespace(batch_size=64, bottleneck=4, condense_factor=4, convert_from=None, data='cifar10', dropout_rate=0, epochs=300, evaluate=False, evaluate_from=None, filename='condenserestrans_242938_31902250.txt', gpu='7', group_1x1=4, group_3x3=4, group_lasso_lambda=0.0, group_trans=4, growth=[8, 16, 32], lr=0.1, lr_type='cosine', manual_seed=0, model='condenserestrans', momentum=0.9, no_save_model=False, num_classes=10, pretrained=False, print_freq=10, reduction=0.5, resume=True, savedir='results/condenserestrans52/', stages=[8, 8, 8], start_epoch=0, trans_factor=4, weight_decay=0.0001, workers=4)
…
on=0.5, resume=True, savedir='results/condenserestrans52/', stages=[8, 8, 8], start_epoch=16, trans_factor=4, weight_decay=0.0001, workers=4)
=> saving checkpoint 'results/condenserestrans52/save_models/checkpoint.pth.tar'
=> saved checkpoint 'results/condenserestrans52/save_models/checkpoint.pth.tar'
DataParallel(
  (module): CondenseresNetTrans(
    (features): Sequential(
      (init_conv): Conv2d (3, 16, kernel_size=(3, 3), stride=(1, 1), padding=(1, 1), bias=False)
      (denseblock_1): _DenseBlock(
        (denselayer_1): _DenseLayer(
          (conv_1): CondensingConv(
            (norm): BatchNorm2d(16, eps=1e-05, momentum=0.1, affine=True)
            (relu): ReLU(inplace)
            (conv): Conv2d (16, 32, kernel_size=(1, 1), stride=(1, 1), groups=4, bias=False)
          )
          (conv_2): Conv(
            (norm): BatchNorm2d(32, eps=1e-05, momentum=0.1, affine=True)
            (relu): ReLU(inplace)
            (conv): Conv2d (32, 8, kernel_size=(3, 3), stride=(1, 1), padding=(1, 1), groups=4, bias=False)
          )
          (res): CondensingConv(
            (norm): BatchNorm2d(8, eps=1e-05, momentum=0.1, affine=True)
            (relu): ReLU(inplace)
            (conv): Conv2d (8, 16, kernel_size=(1, 1), stride=(1, 1), groups=4, bias=False)
          )
        )
        (denselayer_2): _DenseLayer(
          (conv_1): CondensingConv(
            (norm): BatchNorm2d(24, eps=1e-05, momentum=0.1, affine=True)
            (relu): ReLU(inplace)
            (conv): Conv2d (24, 32, kernel_size=(1, 1), stride=(1, 1), groups=4, bias=False)
          )
          (conv_2): Conv(
            (norm): BatchNorm2d(32, eps=1e-05, momentum=0.1, affine=True)
            (relu): ReLU(inplace)
            (conv): Conv2d (32, 8, kernel_size=(3, 3), stride=(1, 1), padding=(1, 1), groups=4, bias=False)
          )
          (res): CondensingConv(
            (norm): BatchNorm2d(8, eps=1e-05, momentum=0.1, affine=True)
            (relu): ReLU(inplace)
            (conv): Conv2d (8, 24, kernel_size=(1, 1), stride=(1, 1), groups=4, bias=False)
          )
        )
        (denselayer_3): _DenseLayer(
          (conv_1): CondensingConv(
            (norm): BatchNorm2d(32, eps=1e-05, momentum=0.1, affine=True)
            (relu): ReLU(inplace)
            (conv): Conv2d (32, 32, kernel_size=(1, 1), stride=(1, 1), groups=4, bias=False)
          )
          (conv_2): Conv(
            (norm): BatchNorm2d(32, eps=1e-05, momentum=0.1, affine=True)
            (relu): ReLU(inplace)
            (conv): Conv2d (32, 8, kernel_size=(3, 3), stride=(1, 1), padding=(1, 1), groups=4, bias=False)
          )
          (res): CondensingConv(
            (norm): BatchNorm2d(8, eps=1e-05, momentum=0.1, affine=True)
            (relu): ReLU(inplace)
            (conv): Conv2d (8, 32, kernel_size=(1, 1), stride=(1, 1), groups=4, bias=False)
          )
        )
        (denselayer_4): _DenseLayer(
          (conv_1): CondensingConv(
            (norm): BatchNorm2d(40, eps=1e-05, momentum=0.1, affine=True)
            (relu): ReLU(inplace)
            (conv): Conv2d (40, 32, kernel_size=(1, 1), stride=(1, 1), groups=4, bias=False)
          )
          (conv_2): Conv(
            (norm): BatchNorm2d(32, eps=1e-05, momentum=0.1, affine=True)
            (relu): ReLU(inplace)
            (conv): Conv2d (32, 8, kernel_size=(3, 3), stride=(1, 1), padding=(1, 1), groups=4, bias=False)
          )
          (res): CondensingConv(
            (norm): BatchNorm2d(8, eps=1e-05, momentum=0.1, affine=True)
            (relu): ReLU(inplace)
            (conv): Conv2d (8, 40, kernel_size=(1, 1), stride=(1, 1), groups=4, bias=False)
          )
        )
        (denselayer_5): _DenseLayer(
          (conv_1): CondensingConv(
            (norm): BatchNorm2d(48, eps=1e-05, momentum=0.1, affine=True)
            (relu): ReLU(inplace)
            (conv): Conv2d (48, 32, kernel_size=(1, 1), stride=(1, 1), groups=4, bias=False)
          )
          (conv_2): Conv(
            (norm): BatchNorm2d(32, eps=1e-05, momentum=0.1, affine=True)
            (relu): ReLU(inplace)
            (conv): Conv2d (32, 8, kernel_size=(3, 3), stride=(1, 1), padding=(1, 1), groups=4, bias=False)
          )
          (res): CondensingConv(
            (norm): BatchNorm2d(8, eps=1e-05, momentum=0.1, affine=True)
            (relu): ReLU(inplace)
            (conv): Conv2d (8, 48, kernel_size=(1, 1), stride=(1, 1), groups=4, bias=False)
          )
        )
        (denselayer_6): _DenseLayer(
          (conv_1): CondensingConv(
            (norm): BatchNorm2d(56, eps=1e-05, momentum=0.1, affine=True)
            (relu): ReLU(inplace)
            (conv): Conv2d (56, 32, kernel_size=(1, 1), stride=(1, 1), groups=4, bias=False)
          )
          (conv_2): Conv(
            (norm): BatchNorm2d(32, eps=1e-05, momentum=0.1, affine=True)
            (relu): ReLU(inplace)
            (conv): Conv2d (32, 8, kernel_size=(3, 3), stride=(1, 1), padding=(1, 1), groups=4, bias=False)
          )
          (res): CondensingConv(
            (norm): BatchNorm2d(8, eps=1e-05, momentum=0.1, affine=True)
            (relu): ReLU(inplace)
            (conv): Conv2d (8, 56, kernel_size=(1, 1), stride=(1, 1), groups=4, bias=False)
          )
        )
        (denselayer_7): _DenseLayer(
          (conv_1): CondensingConv(
            (norm): BatchNorm2d(64, eps=1e-05, momentum=0.1, affine=True)
            (relu): ReLU(inplace)
            (conv): Conv2d (64, 32, kernel_size=(1, 1), stride=(1, 1), groups=4, bias=False)
          )
          (conv_2): Conv(
            (norm): BatchNorm2d(32, eps=1e-05, momentum=0.1, affine=True)
            (relu): ReLU(inplace)
            (conv): Conv2d (32, 8, kernel_size=(3, 3), stride=(1, 1), padding=(1, 1), groups=4, bias=False)
          )
          (res): CondensingConv(
            (norm): BatchNorm2d(8, eps=1e-05, momentum=0.1, affine=True)
            (relu): ReLU(inplace)
            (conv): Conv2d (8, 64, kernel_size=(1, 1), stride=(1, 1), groups=4, bias=False)
          )
        )
        (denselayer_8): _DenseLayer(
          (conv_1): CondensingConv(
            (norm): BatchNorm2d(72, eps=1e-05, momentum=0.1, affine=True)
            (relu): ReLU(inplace)
            (conv): Conv2d (72, 32, kernel_size=(1, 1), stride=(1, 1), groups=4, bias=False)
          )
          (conv_2): Conv(
            (norm): BatchNorm2d(32, eps=1e-05, momentum=0.1, affine=True)
            (relu): ReLU(inplace)
            (conv): Conv2d (32, 8, kernel_size=(3, 3), stride=(1, 1), padding=(1, 1), groups=4, bias=False)
          )
          (res): CondensingConv(
            (norm): BatchNorm2d(8, eps=1e-05, momentum=0.1, affine=True)
            (relu): ReLU(inplace)
            (conv): Conv2d (8, 72, kernel_size=(1, 1), stride=(1, 1), groups=4, bias=False)
          )
        )
      )
      (transition_1): _Transition(
        (pool): AvgPool2d(kernel_size=2, stride=2, padding=0, ceil_mode=False, count_include_pad=True)
      )
      (denseblock_2): _DenseBlock(
        (denselayer_1): _DenseLayer(
          (conv_1): CondensingConv(
            (norm): BatchNorm2d(80, eps=1e-05, momentum=0.1, affine=True)
            (relu): ReLU(inplace)
            (conv): Conv2d (80, 64, kernel_size=(1, 1), stride=(1, 1), groups=4, bias=False)
          )
          (conv_2): Conv(
            (norm): BatchNorm2d(64, eps=1e-05, momentum=0.1, affine=True)
            (relu): ReLU(inplace)
            (conv): Conv2d (64, 16, kernel_size=(3, 3), stride=(1, 1), padding=(1, 1), groups=4, bias=False)
          )
          (res): CondensingConv(
            (norm): BatchNorm2d(16, eps=1e-05, momentum=0.1, affine=True)
            (relu): ReLU(inplace)
            (conv): Conv2d (16, 80, kernel_size=(1, 1), stride=(1, 1), groups=4, bias=False)
          )
        )
        (denselayer_2): _DenseLayer(
          (conv_1): CondensingConv(
            (norm): BatchNorm2d(96, eps=1e-05, momentum=0.1, affine=True)
            (relu): ReLU(inplace)
            (conv): Conv2d (96, 64, kernel_size=(1, 1), stride=(1, 1), groups=4, bias=False)
          )
          (conv_2): Conv(
            (norm): BatchNorm2d(64, eps=1e-05, momentum=0.1, affine=True)
            (relu): ReLU(inplace)
            (conv): Conv2d (64, 16, kernel_size=(3, 3), stride=(1, 1), padding=(1, 1), groups=4, bias=False)
          )
          (res): CondensingConv(
            (norm): BatchNorm2d(16, eps=1e-05, momentum=0.1, affine=True)
            (relu): ReLU(inplace)
            (conv): Conv2d (16, 96, kernel_size=(1, 1), stride=(1, 1), groups=4, bias=False)
          )
        )
        (denselayer_3): _DenseLayer(
          (conv_1): CondensingConv(
            (norm): BatchNorm2d(112, eps=1e-05, momentum=0.1, affine=True)
            (relu): ReLU(inplace)
            (conv): Conv2d (112, 64, kernel_size=(1, 1), stride=(1, 1), groups=4, bias=False)
          )
          (conv_2): Conv(
            (norm): BatchNorm2d(64, eps=1e-05, momentum=0.1, affine=True)
            (relu): ReLU(inplace)
            (conv): Conv2d (64, 16, kernel_size=(3, 3), stride=(1, 1), padding=(1, 1), groups=4, bias=False)
          )
          (res): CondensingConv(
            (norm): BatchNorm2d(16, eps=1e-05, momentum=0.1, affine=True)
            (relu): ReLU(inplace)
            (conv): Conv2d (16, 112, kernel_size=(1, 1), stride=(1, 1), groups=4, bias=False)
          )
        )
        (denselayer_4): _DenseLayer(
          (conv_1): CondensingConv(
            (norm): BatchNorm2d(128, eps=1e-05, momentum=0.1, affine=True)
            (relu): ReLU(inplace)
            (conv): Conv2d (128, 64, kernel_size=(1, 1), stride=(1, 1), groups=4, bias=False)
          )
          (conv_2): Conv(
            (norm): BatchNorm2d(64, eps=1e-05, momentum=0.1, affine=True)
            (relu): ReLU(inplace)
            (conv): Conv2d (64, 16, kernel_size=(3, 3), stride=(1, 1), padding=(1, 1), groups=4, bias=False)
          )
          (res): CondensingConv(
            (norm): BatchNorm2d(16, eps=1e-05, momentum=0.1, affine=True)
            (relu): ReLU(inplace)
            (conv): Conv2d (16, 128, kernel_size=(1, 1), stride=(1, 1), groups=4, bias=False)
          )
        )
        (denselayer_5): _DenseLayer(
          (conv_1): CondensingConv(
            (norm): BatchNorm2d(144, eps=1e-05, momentum=0.1, affine=True)
            (relu): ReLU(inplace)
            (conv): Conv2d (144, 64, kernel_size=(1, 1), stride=(1, 1), groups=4, bias=False)
          )
          (conv_2): Conv(
            (norm): BatchNorm2d(64, eps=1e-05, momentum=0.1, affine=True)
            (relu): ReLU(inplace)
            (conv): Conv2d (64, 16, kernel_size=(3, 3), stride=(1, 1), padding=(1, 1), groups=4, bias=False)
          )
          (res): CondensingConv(
            (norm): BatchNorm2d(16, eps=1e-05, momentum=0.1, affine=True)
            (relu): ReLU(inplace)
            (conv): Conv2d (16, 144, kernel_size=(1, 1), stride=(1, 1), groups=4, bias=False)
          )
        )
        (denselayer_6): _DenseLayer(
          (conv_1): CondensingConv(
            (norm): BatchNorm2d(160, eps=1e-05, momentum=0.1, affine=True)
            (relu): ReLU(inplace)
            (conv): Conv2d (160, 64, kernel_size=(1, 1), stride=(1, 1), groups=4, bias=False)
          )
          (conv_2): Conv(
            (norm): BatchNorm2d(64, eps=1e-05, momentum=0.1, affine=True)
            (relu): ReLU(inplace)
            (conv): Conv2d (64, 16, kernel_size=(3, 3), stride=(1, 1), padding=(1, 1), groups=4, bias=False)
          )
          (res): CondensingConv(
            (norm): BatchNorm2d(16, eps=1e-05, momentum=0.1, affine=True)
            (relu): ReLU(inplace)
            (conv): Conv2d (16, 160, kernel_size=(1, 1), stride=(1, 1), groups=4, bias=False)
          )
        )
        (denselayer_7): _DenseLayer(
          (conv_1): CondensingConv(
            (norm): BatchNorm2d(176, eps=1e-05, momentum=0.1, affine=True)
            (relu): ReLU(inplace)
            (conv): Conv2d (176, 64, kernel_size=(1, 1), stride=(1, 1), groups=4, bias=False)
          )
          (conv_2): Conv(
            (norm): BatchNorm2d(64, eps=1e-05, momentum=0.1, affine=True)
            (relu): ReLU(inplace)
            (conv): Conv2d (64, 16, kernel_size=(3, 3), stride=(1, 1), padding=(1, 1), groups=4, bias=False)
          )
          (res): CondensingConv(
            (norm): BatchNorm2d(16, eps=1e-05, momentum=0.1, affine=True)
            (relu): ReLU(inplace)
            (conv): Conv2d (16, 176, kernel_size=(1, 1), stride=(1, 1), groups=4, bias=False)
          )
        )
        (denselayer_8): _DenseLayer(
          (conv_1): CondensingConv(
            (norm): BatchNorm2d(192, eps=1e-05, momentum=0.1, affine=True)
            (relu): ReLU(inplace)
            (conv): Conv2d (192, 64, kernel_size=(1, 1), stride=(1, 1), groups=4, bias=False)
          )
          (conv_2): Conv(
            (norm): BatchNorm2d(64, eps=1e-05, momentum=0.1, affine=True)
            (relu): ReLU(inplace)
            (conv): Conv2d (64, 16, kernel_size=(3, 3), stride=(1, 1), padding=(1, 1), groups=4, bias=False)
          )
          (res): CondensingConv(
            (norm): BatchNorm2d(16, eps=1e-05, momentum=0.1, affine=True)
            (relu): ReLU(inplace)
            (conv): Conv2d (16, 192, kernel_size=(1, 1), stride=(1, 1), groups=4, bias=False)
          )
        )
      )
      (transition_2): _Transition(
        (pool): AvgPool2d(kernel_size=2, stride=2, padding=0, ceil_mode=False, count_include_pad=True)
      )
      (denseblock_3): _DenseBlock(
        (denselayer_1): _DenseLayer(
          (conv_1): CondensingConv(
            (norm): BatchNorm2d(208, eps=1e-05, momentum=0.1, affine=True)
            (relu): ReLU(inplace)
            (conv): Conv2d (208, 128, kernel_size=(1, 1), stride=(1, 1), groups=4, bias=False)
          )
          (conv_2): Conv(
            (norm): BatchNorm2d(128, eps=1e-05, momentum=0.1, affine=True)
            (relu): ReLU(inplace)
            (conv): Conv2d (128, 32, kernel_size=(3, 3), stride=(1, 1), padding=(1, 1), groups=4, bias=False)
          )
          (res): CondensingConv(
            (norm): BatchNorm2d(32, eps=1e-05, momentum=0.1, affine=True)
            (relu): ReLU(inplace)
            (conv): Conv2d (32, 208, kernel_size=(1, 1), stride=(1, 1), groups=4, bias=False)
          )
        )
        (denselayer_2): _DenseLayer(
          (conv_1): CondensingConv(
            (norm): BatchNorm2d(240, eps=1e-05, momentum=0.1, affine=True)
            (relu): ReLU(inplace)
            (conv): Conv2d (240, 128, kernel_size=(1, 1), stride=(1, 1), groups=4, bias=False)
          )
          (conv_2): Conv(
            (norm): BatchNorm2d(128, eps=1e-05, momentum=0.1, affine=True)
            (relu): ReLU(inplace)
            (conv): Conv2d (128, 32, kernel_size=(3, 3), stride=(1, 1), padding=(1, 1), groups=4, bias=False)
          )
          (res): CondensingConv(
            (norm): BatchNorm2d(32, eps=1e-05, momentum=0.1, affine=True)
            (relu): ReLU(inplace)
            (conv): Conv2d (32, 240, kernel_size=(1, 1), stride=(1, 1), groups=4, bias=False)
          )
        )
        (denselayer_3): _DenseLayer(
          (conv_1): CondensingConv(
            (norm): BatchNorm2d(272, eps=1e-05, momentum=0.1, affine=True)
            (relu): ReLU(inplace)
            (conv): Conv2d (272, 128, kernel_size=(1, 1), stride=(1, 1), groups=4, bias=False)
          )
          (conv_2): Conv(
            (norm): BatchNorm2d(128, eps=1e-05, momentum=0.1, affine=True)
            (relu): ReLU(inplace)
            (conv): Conv2d (128, 32, kernel_size=(3, 3), stride=(1, 1), padding=(1, 1), groups=4, bias=False)
          )
          (res): CondensingConv(
            (norm): BatchNorm2d(32, eps=1e-05, momentum=0.1, affine=True)
            (relu): ReLU(inplace)
            (conv): Conv2d (32, 272, kernel_size=(1, 1), stride=(1, 1), groups=4, bias=False)
          )
        )
        (denselayer_4): _DenseLayer(
          (conv_1): CondensingConv(
            (norm): BatchNorm2d(304, eps=1e-05, momentum=0.1, affine=True)
            (relu): ReLU(inplace)
            (conv): Conv2d (304, 128, kernel_size=(1, 1), stride=(1, 1), groups=4, bias=False)
          )
          (conv_2): Conv(
            (norm): BatchNorm2d(128, eps=1e-05, momentum=0.1, affine=True)
            (relu): ReLU(inplace)
            (conv): Conv2d (128, 32, kernel_size=(3, 3), stride=(1, 1), padding=(1, 1), groups=4, bias=False)
          )
          (res): CondensingConv(
            (norm): BatchNorm2d(32, eps=1e-05, momentum=0.1, affine=True)
            (relu): ReLU(inplace)
            (conv): Conv2d (32, 304, kernel_size=(1, 1), stride=(1, 1), groups=4, bias=False)
          )
        )
        (denselayer_5): _DenseLayer(
          (conv_1): CondensingConv(
            (norm): BatchNorm2d(336, eps=1e-05, momentum=0.1, affine=True)
            (relu): ReLU(inplace)
            (conv): Conv2d (336, 128, kernel_size=(1, 1), stride=(1, 1), groups=4, bias=False)
          )
          (conv_2): Conv(
            (norm): BatchNorm2d(128, eps=1e-05, momentum=0.1, affine=True)
            (relu): ReLU(inplace)
            (conv): Conv2d (128, 32, kernel_size=(3, 3), stride=(1, 1), padding=(1, 1), groups=4, bias=False)
          )
          (res): CondensingConv(
            (norm): BatchNorm2d(32, eps=1e-05, momentum=0.1, affine=True)
            (relu): ReLU(inplace)
            (conv): Conv2d (32, 336, kernel_size=(1, 1), stride=(1, 1), groups=4, bias=False)
          )
        )
        (denselayer_6): _DenseLayer(
          (conv_1): CondensingConv(
            (norm): BatchNorm2d(368, eps=1e-05, momentum=0.1, affine=True)
            (relu): ReLU(inplace)
            (conv): Conv2d (368, 128, kernel_size=(1, 1), stride=(1, 1), groups=4, bias=False)
          )
          (conv_2): Conv(
            (norm): BatchNorm2d(128, eps=1e-05, momentum=0.1, affine=True)
            (relu): ReLU(inplace)
            (conv): Conv2d (128, 32, kernel_size=(3, 3), stride=(1, 1), padding=(1, 1), groups=4, bias=False)
          )
          (res): CondensingConv(
            (norm): BatchNorm2d(32, eps=1e-05, momentum=0.1, affine=True)
            (relu): ReLU(inplace)
            (conv): Conv2d (32, 368, kernel_size=(1, 1), stride=(1, 1), groups=4, bias=False)
          )
        )
        (denselayer_7): _DenseLayer(
          (conv_1): CondensingConv(
            (norm): BatchNorm2d(400, eps=1e-05, momentum=0.1, affine=True)
            (relu): ReLU(inplace)
            (conv): Conv2d (400, 128, kernel_size=(1, 1), stride=(1, 1), groups=4, bias=False)
          )
          (conv_2): Conv(
            (norm): BatchNorm2d(128, eps=1e-05, momentum=0.1, affine=True)
            (relu): ReLU(inplace)
            (conv): Conv2d (128, 32, kernel_size=(3, 3), stride=(1, 1), padding=(1, 1), groups=4, bias=False)
          )
          (res): CondensingConv(
            (norm): BatchNorm2d(32, eps=1e-05, momentum=0.1, affine=True)
            (relu): ReLU(inplace)
            (conv): Conv2d (32, 400, kernel_size=(1, 1), stride=(1, 1), groups=4, bias=False)
          )
        )
        (denselayer_8): _DenseLayer(
          (conv_1): CondensingConv(
            (norm): BatchNorm2d(432, eps=1e-05, momentum=0.1, affine=True)
            (relu): ReLU(inplace)
            (conv): Conv2d (432, 128, kernel_size=(1, 1), stride=(1, 1), groups=4, bias=False)
          )
          (conv_2): Conv(
            (norm): BatchNorm2d(128, eps=1e-05, momentum=0.1, affine=True)
            (relu): ReLU(inplace)
            (conv): Conv2d (128, 32, kernel_size=(3, 3), stride=(1, 1), padding=(1, 1), groups=4, bias=False)
          )
          (res): CondensingConv(
            (norm): BatchNorm2d(32, eps=1e-05, momentum=0.1, affine=True)
            (relu): ReLU(inplace)
            (conv): Conv2d (32, 432, kernel_size=(1, 1), stride=(1, 1), groups=4, bias=False)
          )
        )
      )
      (norm_last): BatchNorm2d(464, eps=1e-05, momentum=0.1, affine=True)
      (relu_last): ReLU(inplace)
      (pool_last): AvgPool2d(kernel_size=8, stride=8, padding=0, ceil_mode=False, count_include_pad=True)
    )
    (classifier): CondensingLinear(
      (linear): Linear(in_features=232, out_features=10)
    )
  )
)
